…
opt_betas: 	None	
momentum: 	0.9	
weight_decay: 	0.0	
clip_grad: 	None	
clip_mode: 	norm	
no_display_method_info: 	False	
sched: 	cosine	
lr: 	0.001	
lr_k_decay: 	1.0	
warmup_lr: 	1e-05	
min_lr: 	1e-06	
final_div_factor: 	10000.0	
warmup_epoch: 	5	
decay_epoch: 	100	
decay_rate: 	0.1	
filter_bias_and_bn: 	False	
gpus: 	[0]	
metric_for_bestckpt: 	val_loss	
ckpt_path: 	None	
hidden_dim: 	64	
N: 	4	
NE: 	2	
ND: 	2	
patch_size: 	2	
in_shape: 	[4, 2, 32, 32]	
metrics: 	['mse', 'mae', 'ssim', 'psnr']	
2024-08-07 19:15:48,808 - Model info:
FSCVP_Model(
  (embed): ModuleList(
    (0): PatchEmbed(
      (proj): Conv2d(2, 64, kernel_size=(2, 2), stride=(2, 2))
      (norm): BatchNorm2d(64, eps=1e-05, momentum=0.1, affine=True, track_running_stats=True)
    )
    (1): PatchEmbed(
      (proj): Conv2d(64, 128, kernel_size=(2, 2), stride=(2, 2))
      (norm): BatchNorm2d(128, eps=1e-05, momentum=0.1, affine=True, track_running_stats=True)
    )
    (2): PatchEmbed(
      (proj): ConvTranspose2d(128, 128, kernel_size=(2, 2), stride=(2, 2))
      (norm): BatchNorm2d(128, eps=1e-05, momentum=0.1, affine=True, track_running_stats=True)
    )
    (3): PatchEmbed(
      (proj): ConvTranspose2d(128, 64, kernel_size=(2, 2), stride=(2, 2))
      (norm): BatchNorm2d(64, eps=1e-05, momentum=0.1, affine=True, track_running_stats=True)
    )
  )
  (layers): ModuleList(
    (0): ModuleList(
      (0): EncoderLayer_T(
        (attn): FeedForward(
          (ff1): Sequential(
            (0): Conv3d(64, 64, kernel_size=(3, 3, 3), stride=(1, 1, 1), padding=(1, 1, 1), groups=64, bias=False)
            (1): Conv3d(64, 64, kernel_size=(3, 3, 3), stride=(1, 1, 1), padding=same, dilation=(1, 1, 2), groups=64, bias=False)
            (2): GELU(approximate='none')
          )
          (drop_path): Identity()
        )
        (norm): GroupNorm(1, 64, eps=1e-05, affine=True)
      )
      (1): EncoderLayer_S(
        (attn): ConvMod(
          (norm1): LayerNorm()
          (norm2): LayerNorm()
          (a): Sequential(
            (0): Conv2d(64, 64, kernel_size=(1, 1), stride=(1, 1))
            (1): GELU(approximate='none')
            (2): Conv2d(64, 64, kernel_size=(7, 7), stride=(1, 1), padding=same, groups=64)
          )
          (v): Conv2d(64, 64, kernel_size=(1, 1), stride=(1, 1))
          (proj): Conv2d(64, 64, kernel_size=(1, 1), stride=(1, 1))
          (drop_path): Identity()
        )
        (norm): GroupNorm(1, 64, eps=1e-05, affine=True)
      )
      (2): EncoderLayer_T(
        (attn): FeedForward(
          (ff1): Sequential(
            (0): Conv3d(64, 64, kernel_size=(3, 3, 3), stride=(1, 1, 1), padding=(1, 1, 1), groups=64, bias=False)
            (1): Conv3d(64, 64, kernel_size=(3, 3, 3), stride=(1, 1, 1), padding=same, dilation=(1, 1, 2), groups=64, bias=False)
            (2): GELU(approximate='none')
          )
          (drop_path): Identity()
        )
        (norm): GroupNorm(1, 64, eps=1e-05, affine=True)
      )
      (3): EncoderLayer_S(
        (attn): ConvMod(
          (norm1): LayerNorm()
          (norm2): LayerNorm()
          (a): Sequential(
            (0): Conv2d(64, 64, kernel_size=(1, 1), stride=(1, 1))
            (1): GELU(approximate='none')
            (2): Conv2d(64, 64, kernel_size=(7, 7), stride=(1, 1), padding=same, groups=64)
          )
          (v): Conv2d(64, 64, kernel_size=(1, 1), stride=(1, 1))
          (proj): Conv2d(64, 64, kernel_size=(1, 1), stride=(1, 1))
          (drop_path): Identity()
        )
        (norm): GroupNorm(1, 64, eps=1e-05, affine=True)
      )
    )
    (1): ModuleList(
      (0): EncoderLayer_T(
        (attn): FeedForward(
          (ff1): Sequential(
            (0): Conv3d(128, 128, kernel_size=(3, 3, 3), stride=(1, 1, 1), padding=(1, 1, 1), groups=128, bias=False)
            (1): Conv3d(128, 128, kernel_size=(3, 3, 3), stride=(1, 1, 1), padding=same, dilation=(1, 1, 2), groups=128, bias=False)
            (2): GELU(approximate='none')
          )
          (drop_path): Identity()
        )
        (norm): GroupNorm(1, 128, eps=1e-05, affine=True)
      )
      (1): EncoderLayer_S(
        (attn): ConvMod(
          (norm1): LayerNorm()
          (norm2): LayerNorm()
          (a): Sequential(
            (0): Conv2d(128, 128, kernel_size=(1, 1), stride=(1, 1))
            (1): GELU(approximate='none')
            (2): Conv2d(128, 128, kernel_size=(7, 7), stride=(1, 1), padding=same, groups=128)
          )
          (v): Conv2d(128, 128, kernel_size=(1, 1), stride=(1, 1))
          (proj): Conv2d(128, 128, kernel_size=(1, 1), stride=(1, 1))
          (drop_path): Identity()
        )
        (norm): GroupNorm(1, 128, eps=1e-05, affine=True)
      )
      (2): EncoderLayer_T(
        (attn): FeedForward(
          (ff1): Sequential(
            (0): Conv3d(128, 128, kernel_size=(3, 3, 3), stride=(1, 1, 1), padding=(1, 1, 1), groups=128, bias=False)
            (1): Conv3d(128, 128, kernel_size=(3, 3, 3), stride=(1, 1, 1), padding=same, dilation=(1, 1, 2), groups=128, bias=False)
            (2): GELU(approximate='none')
          )
          (drop_path): Identity()
        )
        (norm): GroupNorm(1, 128, eps=1e-05, affine=True)
      )
      (3): EncoderLayer_S(
        (attn): ConvMod(
          (norm1): LayerNorm()
          (norm2): LayerNorm()
          (a): Sequential(
            (0): Conv2d(128, 128, kernel_size=(1, 1), stride=(1, 1))
            (1): GELU(approximate='none')
            (2): Conv2d(128, 128, kernel_size=(7, 7), stride=(1, 1), padding=same, groups=128)
          )
          (v): Conv2d(128, 128, kernel_size=(1, 1), stride=(1, 1))
          (proj): Conv2d(128, 128, kernel_size=(1, 1), stride=(1, 1))
          (drop_path): Identity()
        )
        (norm): GroupNorm(1, 128, eps=1e-05, affine=True)
      )
    )
    (2): ModuleList(
      (0): DecoderLayer_T(
        (mlp): Sequential(
          (0): Conv3d(128, 256, kernel_size=(3, 3, 3), stride=(1, 1, 1), padding=(1, 1, 1))
          (1): GELU(approximate='none')
          (2): Conv3d(256, 128, kernel_size=(3, 3, 3), stride=(1, 1, 1), padding=(1, 1, 1))
        )
        (norm): GroupNorm(1, 128, eps=1e-05, affine=True)
      )
      (1): DecoderLayer_S(
        (mlp): Sequential(
          (0): Conv2d(128, 256, kernel_size=(1, 1), stride=(1, 1))
          (1): GELU(approximate='none')
          (2): Conv2d(256, 128, kernel_size=(1, 1), stride=(1, 1))
        )
        (norm): GroupNorm(1, 128, eps=1e-05, affine=True)
      )
      (2): DecoderLayer_T(
        (mlp): Sequential(
          (0): Conv3d(128, 256, kernel_size=(3, 3, 3), stride=(1, 1, 1), padding=(1, 1, 1))
          (1): GELU(approximate='none')
          (2): Conv3d(256, 128, kernel_size=(3, 3, 3), stride=(1, 1, 1), padding=(1, 1, 1))
        )
        (norm): GroupNorm(1, 128, eps=1e-05, affine=True)
      )
      (3): DecoderLayer_S(
        (mlp): Sequential(
          (0): Conv2d(128, 256, kernel_size=(1, 1), stride=(1, 1))
          (1): GELU(approximate='none')
          (2): Conv2d(256, 128, kernel_size=(1, 1), stride=(1, 1))
        )
        (norm): GroupNorm(1, 128, eps=1e-05, affine=True)
      )
    )
    (3): ModuleList(
      (0): DecoderLayer_T(
        (mlp): Sequential(
          (0): Conv3d(64, 128, kernel_size=(3, 3, 3), stride=(1, 1, 1), padding=(1, 1, 1))
          (1): GELU(approximate='none')
          (2): Conv3d(128, 64, kernel_size=(3, 3, 3), stride=(1, 1, 1), padding=(1, 1, 1))
        )
        (norm): GroupNorm(1, 64, eps=1e-05, affine=True)
      )
      (1): DecoderLayer_S(
        (mlp): Sequential(
          (0): Conv2d(64, 128, kernel_size=(1, 1), stride=(1, 1))
          (1): GELU(approximate='none')
          (2): Conv2d(128, 64, kernel_size=(1, 1), stride=(1, 1))
        )
        (norm): GroupNorm(1, 64, eps=1e-05, affine=True)
      )
      (2): DecoderLayer_T(
        (mlp): Sequential(
          (0): Conv3d(64, 128, kernel_size=(3, 3, 3), stride=(1, 1, 1), padding=(1, 1, 1))
          (1): GELU(approximate='none')
          (2): Conv3d(128, 64, kernel_size=(3, 3, 3), stride=(1, 1, 1), padding=(1, 1, 1))
        )
        (norm): GroupNorm(1, 64, eps=1e-05, affine=True)
      )
      (3): DecoderLayer_S(
        (mlp): Sequential(
          (0): Conv2d(64, 128, kernel_size=(1, 1), stride=(1, 1))
          (1): GELU(approximate='none')
          (2): Conv2d(128, 64, kernel_size=(1, 1), stride=(1, 1))
        )
        (norm): GroupNorm(1, 64, eps=1e-05, affine=True)
      )
    )
  )
  (finalembed): PatchEmbed(
    (proj): ConvTranspose2d(64, 64, kernel_size=(2, 2), stride=(2, 2))
    (norm): BatchNorm2d(64, eps=1e-05, momentum=0.1, affine=True, track_running_stats=True)
  )
  (final): Sequential(
    (0): Conv2d(64, 2, kernel_size=(3, 3), stride=(1, 1), padding=(1, 1), bias=False)
    (1): Sigmoid()
  )
)
| module                    | #parameters or shape   | #flops     |
|:--------------------------|:-----------------------|:-----------|
| model                     | 4.91M                  | 1.98G      |
|  embed                    |  0.133M                |  18.121M   |
|   embed.0                 |   0.704K               |   0.852M   |
…
